Model: "sequential"
_________________________________________________________________
Layer (type)                 Output Shape              Param #   
=================================================================
embedding (Embedding)        (None, 32, 100)           5600      
_________________________________________________________________
lstm (LSTM)                  (None, 32, 128)           117248    
_________________________________________________________________
lstm_1 (LSTM)                (None, 128)               131584    
_________________________________________________________________
dense (Dense)                (None, 256)               33024     
_________________________________________________________________
activation (Activation)      (None, 256)               0         
_________________________________________________________________
dense_1 (Dense)              (None, 56)                14392     
_________________________________________________________________
activation_1 (Activation)    (None, 56)                0         
=================================================================
Total params: 301,848
Trainable params: 301,848
Non-trainable params: 0
_________________________________________________________________
unique x: 56
unique y: 56
2022-05-10 10:09:23.909487: I tensorflow/compiler/mlir/mlir_graph_optimization_pass.cc:185] None of the MLIR Optimization Passes are enabled (registered 2)
Epoch 1/50
…
