Model: "sequential"
_________________________________________________________________
Layer (type)                 Output Shape              Param #   
=================================================================
embedding (Embedding)        (None, 32, 200)           25200     
_________________________________________________________________
lstm (LSTM)                  (None, 32, 512)           1460224   
_________________________________________________________________
lstm_1 (LSTM)                (None, 32, 512)           2099200   
_________________________________________________________________
lstm_2 (LSTM)                (None, 512)               2099200   
_________________________________________________________________
dense (Dense)                (None, 1024)              525312    
_________________________________________________________________
activation (Activation)      (None, 1024)              0         
_________________________________________________________________
dense_1 (Dense)              (None, 126)               129150    
_________________________________________________________________
activation_1 (Activation)    (None, 126)               0         
=================================================================
Total params: 6,338,286
Trainable params: 6,338,286
Non-trainable params: 0
_________________________________________________________________
unique x: 126
unique y: 126
2022-05-10 15:39:05.157897: I tensorflow/compiler/mlir/mlir_graph_optimization_pass.cc:185] None of the MLIR Optimization Passes are enabled (registered 2)
…
