…
y: (594095,)
2022-05-10 13:13:30.151764: I tensorflow/core/platform/cpu_feature_guard.cc:142] This TensorFlow binary is optimized with oneAPI Deep Neural Network Library (oneDNN) to use the following CPU instructions in performance-critical operations:  AVX2 FMA
To enable them in other operations, rebuild TensorFlow with the appropriate compiler flags.
Model: "sequential"
_________________________________________________________________
Layer (type)                 Output Shape              Param #   
=================================================================
embedding (Embedding)        (None, 32, 100)           41400     
_________________________________________________________________
lstm (LSTM)                  (None, 32, 128)           117248    
_________________________________________________________________
lstm_1 (LSTM)                (None, 128)               131584    
_________________________________________________________________
dense (Dense)                (None, 256)               33024     
_________________________________________________________________
activation (Activation)      (None, 256)               0         
_________________________________________________________________
dense_1 (Dense)              (None, 414)               106398    
_________________________________________________________________
activation_1 (Activation)    (None, 414)               0         
=================================================================
Total params: 429,654
Trainable params: 429,654
Non-trainable params: 0
_________________________________________________________________
unique x: 414
unique y: 414
2022-05-10 13:13:30.776103: I tensorflow/compiler/mlir/mlir_graph_optimization_pass.cc:185] None of the MLIR Optimization Passes are enabled (registered 2)
Epoch 1/250
…
