Model: "sequential"
_________________________________________________________________
Layer (type)                 Output Shape              Param #   
=================================================================
embedding (Embedding)        (None, 32, 200)           25200     
_________________________________________________________________
lstm (LSTM)                  (None, 32, 256)           467968    
_________________________________________________________________
lstm_1 (LSTM)                (None, 32, 256)           525312    
_________________________________________________________________
lstm_2 (LSTM)                (None, 256)               525312    
_________________________________________________________________
dense (Dense)                (None, 512)               131584    
_________________________________________________________________
activation (Activation)      (None, 512)               0         
_________________________________________________________________
dense_1 (Dense)              (None, 126)               64638     
_________________________________________________________________
activation_1 (Activation)    (None, 126)               0         
=================================================================
Total params: 1,740,014
Trainable params: 1,740,014
Non-trainable params: 0
_________________________________________________________________
unique x: 126
unique y: 126
2022-05-10 15:17:37.166448: I tensorflow/compiler/mlir/mlir_graph_optimization_pass.cc:185] None of the MLIR Optimization Passes are enabled (registered 2)
…
