x: (20425, 32)
y: (20425,)

Model: "sequential"
_________________________________________________________________
 Layer (type)                Output Shape              Param #   
=================================================================
 embedding (Embedding)       (None, 32, 100)           12600     
                                                                 
 conv1d (Conv1D)             (None, 32, 64)            19264     
                                                                 
 dropout (Dropout)           (None, 32, 64)            0         
                                                                 
 max_pooling1d (MaxPooling1D  (None, 16, 64)           0         
 )                                                               
                                                                 
 conv1d_1 (Conv1D)           (None, 16, 128)           24704     
                                                                 
 dropout_1 (Dropout)         (None, 16, 128)           0         
                                                                 
 max_pooling1d_1 (MaxPooling  (None, 8, 128)           0         
 1D)                                                             
                                                                 
 conv1d_2 (Conv1D)           (None, 8, 256)            98560     
                                                                 
 dropout_2 (Dropout)         (None, 8, 256)            0         
                                                                 
 max_pooling1d_2 (MaxPooling  (None, 4, 256)           0         
 1D)                                                             
                                                                 
 conv1d_3 (Conv1D)           (None, 4, 256)            196864    
                                                                 
 dropout_3 (Dropout)         (None, 4, 256)            0         
                                                                 
 max_pooling1d_3 (MaxPooling  (None, 2, 256)           0         
 1D)                                                             
                                                                 
 global_max_pooling1d (Globa  (None, 256)              0         
 lMaxPooling1D)                                                  
                                                                 
 dense (Dense)               (None, 256)               65792     
                                                                 
 dense_1 (Dense)             (None, 126)               32382     
                                                                 
=================================================================
Total params: 450,166
Trainable params: 450,166
Non-trainable params: 0
_________________________________________________________________
unique x: 126
unique y: 126
Epoch 1/250
2022-05-11 05:54:40.618197: I tensorflow/stream_executor/cuda/cuda_dnn.cc:368] Loaded cuDNN version 8200
…
